…
cution":{"iopub.status.busy":"2024-04-24T08:41:07.384625Z","iopub.execute_input":"2024-04-24T08:41:07.384918Z","iopub.status.idle":"2024-04-24T08:41:07.423914Z","shell.execute_reply.started":"2024-04-24T08:41:07.384868Z","shell.execute_reply":"2024-04-24T08:41:07.422846Z"},"trusted":true},"execution_count":15,"outputs":[{"name":"stdout","text":"Model: \"sequential\"\n_________________________________________________________________\n Layer (type)                Output Shape              Param #   \n=================================================================\n conv2d (Conv2D)             (32, 32, 32, 3)           84        \n                                                                 \n conv2d_1 (Conv2D)           (32, 30, 30, 128)         3584      \n                                                                 \n max_pooling2d (MaxPooling2  (32, 10, 10, 128)         0         \n D)                                                              \n                                                                 \n conv2d_2 (Conv2D)           (32, 8, 8, 256)           295168    \n                                                                 \n dropout (Dropout)           (32, 8, 8, 256)           0         \n                                                                 \n conv2d_3 (Conv2D)           (32, 4, 4, 256)           590080    \n                                                                 \n max_pooling2d_1 (MaxPoolin  (32, 2, 2, 256)           0         \n g2D)                                                            \n                                                                 \n conv2d_4 (Conv2D)           (32, 2, 2, 512)           1180160   \n                                                                 \n dropout_1 (Dropout)         (32, 2, 2, 512)           0         \n                                                                 \n conv2d_5 (Conv2D)           (32, 2, 2, 1024)          2098176   \n                                                                 \n max_pooling2d_2 (MaxPoolin  (32, 1, 1, 1024)          0         \n g2D)                                                            \n                                                                 \n flatten (Flatten)           (32, 1024)                0         \n                                                                 \n dense (Dense)               (32, 1024)                1049600   \n                                                                 \n dense_1 (Dense)             (32, 36)                  36900     \n                                                                 \n=================================================================\nTotal params: 5253752 (20.04 MB)\nTrainable params: 5253752 (20.04 MB)\nNon-trainable params: 0 (0.00 Byte)\n_________________________________________________________________\n","output_type":"stream"}]},{"cell_type":"code","source":"# Default parameters of a
…
tion":{"iopub.status.busy":"2024-04-24T09:40:20.658382Z","iopub.execute_input":"2024-04-24T09:40:20.658722Z","iopub.status.idle":"2024-04-24T09:40:20.755803Z","shell.execute_reply.started":"2024-04-24T09:40:20.658688Z","shell.execute_reply":"2024-04-24T09:40:20.754988Z"},"trusted":true},"execution_count":23,"outputs":[{"name":"stdout","text":"Model: \"sequential_1\"\n_________________________________________________________________\n Layer (type)                Output Shape              Param #   \n=================================================================\n efficientnetb7 (Functional  (None, 1, 1, 2560)        64097687  \n )                                                               \n                                                                 \n flatten_1 (Flatten)         (None, 2560)              0         \n                                                                 \n dense_2 (Dense)             (None, 1024)              2622464   \n                                                                 \n dropout_2 (Dropout)         (None, 1024)              0         \n                                                                 \n dense_3 (Dense)             (None, 512)               524800    \n                                                                 \n dense_4 (Dense)             (None, 36)                18468     \n                                                                 \n=================================================================\nTotal params: 67263419 (256.59 MB)\nTrainable params: 66952692 (255.40 MB)\nNon-trainable params: 310727 (1.19 MB)\n_________________________________________________________________\n","output_type":"stream"}]},{"cell_type":"code","source":"# The pre-defined 
…
tion":{"iopub.status.busy":"2024-04-24T11:26:54.727024Z","iopub.execute_input":"2024-04-24T11:26:54.727449Z","iopub.status.idle":"2024-04-24T11:26:54.788627Z","shell.execute_reply.started":"2024-04-24T11:26:54.727409Z","shell.execute_reply":"2024-04-24T11:26:54.787587Z"},"trusted":true},"execution_count":31,"outputs":[{"name":"stdout","text":"Model: \"sequential_2\"\n_________________________________________________________________\n Layer (type)                Output Shape              Param #   \n=================================================================\n mobilenetv2_1.00_224 (Func  (None, 1, 1, 1280)        2257984   \n tional)                                                         \n                                                                 \n flatten_2 (Flatten)         (None, 1280)              0         \n                                                                 \n dense_5 (Dense)             (None, 1024)              1311744   \n                                                                 \n dropout_3 (Dropout)         (None, 1024)              0         \n                                                                 \n dense_6 (Dense)             (None, 512)               524800    \n                                                                 \n dense_7 (Dense)             (None, 36)                18468     \n                                                                 \n=================================================================\nTotal params: 4112996 (15.69 MB)\nTrainable params: 4078884 (15.56 MB)\nNon-trainable params: 34112 (133.25 KB)\n_________________________________________________________________\n","output_type":"stream"}]},{"cell_type":"code","source":"MobNetV2.compile(opti
…
tion":{"iopub.status.busy":"2024-04-24T12:12:48.479444Z","iopub.execute_input":"2024-04-24T12:12:48.480130Z","iopub.status.idle":"2024-04-24T12:12:48.502677Z","shell.execute_reply.started":"2024-04-24T12:12:48.480094Z","shell.execute_reply":"2024-04-24T12:12:48.501808Z"},"trusted":true},"execution_count":39,"outputs":[{"name":"stdout","text":"Model: \"sequential_3\"\n_________________________________________________________________\n Layer (type)                Output Shape              Param #   \n=================================================================\n vgg19 (Functional)          (None, 1, 1, 512)         20024384  \n                                                                 \n flatten_3 (Flatten)         (None, 512)               0         \n                                                                 \n dense_8 (Dense)             (None, 1024)              525312    \n                                                                 \n dense_9 (Dense)             (None, 512)               524800    \n                                                                 \n dense_10 (Dense)            (None, 36)                18468     \n                                                                 \n=================================================================\nTotal params: 21092964 (80.46 MB)\nTrainable params: 21092964 (80.46 MB)\nNon-trainable params: 0 (0.00 Byte)\n_________________________________________________________________\n","output_type":"stream"}]},{"cell_type":"code","source":"VG.compile(optimizer=Ad
…
tion":{"iopub.status.busy":"2024-04-24T12:57:42.352235Z","iopub.execute_input":"2024-04-24T12:57:42.352517Z","iopub.status.idle":"2024-04-24T12:57:42.416286Z","shell.execute_reply.started":"2024-04-24T12:57:42.352492Z","shell.execute_reply":"2024-04-24T12:57:42.415459Z"},"trusted":true},"execution_count":47,"outputs":[{"name":"stdout","text":"Model: \"sequential_4\"\n_________________________________________________________________\n Layer (type)                Output Shape              Param #   \n=================================================================\n densenet121 (Functional)    (None, 1, 1, 1024)        7037504   \n                                                                 \n flatten_4 (Flatten)         (None, 1024)              0         \n                                                                 \n dense_11 (Dense)            (None, 1024)              1049600   \n                                                                 \n dense_12 (Dense)            (None, 512)               524800    \n                                                                 \n dense_13 (Dense)            (None, 36)                18468     \n                                                                 \n=================================================================\nTotal params: 8630372 (32.92 MB)\nTrainable params: 8546724 (32.60 MB)\nNon-trainable params: 83648 (326.75 KB)\n_________________________________________________________________\n","output_type":"stream"}]},{"cell_type":"code","source":"Den.compile(optimizer
…
